Final_Project/models/model.pt (torch, 13373 bytes, 6 tensors)

net.0.weight f4 [64, 6]
00000000: 8b57 9ebe 42e9 303d 3cd1 cf3e 2ab9 813e
00000010: 08a6 66bd a491 aabe 661a 753d cca3 603e
00000020: 2667 ce3e e5c1 053e 20ee 3d3d 9738 4fbe
00000030: c8ae 153e 760f a1be 328d 7ebe 607d 3cbd
00000040: 9542 abbe 604c ba3e 5ce5 343e 0df4 67be
00000050: 829f 9fbe f3ee 993e 4c4f f1bd 7a66 963e
00000060: 0845 df3d 0170 03be c631 adbe 0c88 803e
00000070: 0088 cc3c 8876 793e 676c 1abd 04c6 9d3e
00000080: a267 113e 1742 873e e4d2 603e 3c7a 94be
00000090: ac67 89bd f0b8 3b3e c0b5 bc3e e42d d5bd
000000a0: 8ce2 bc3e d9cf b5be ebe1 a83e 30a6 543c
000000b0: 2f68 ae3e dd88 093d 204f 923c 00c6 77be
000000c0: 1866 8d3e fce3 983e 4c3b cf3e b6e3 53be
000000d0: 4074 3abc 9cb6 41be f1d4 bdbe 1d68 9cbe
000000e0: 846a 073e 44f3 44be 5a33 973e 1a6d 2abe
000000f0: e00e e0bc b060 8f3d f6fd 83be ae3b bebe
00000100: d4dd 073e 5a68 c93e 3d99 1fbd 5ecb cb3c
00000110: 5774 8e3e c83a b53e 3892 5d3e cc28 b83e
00000120: 8c3c 203d 8776 47be 773e bd3e 3712 763e
00000130: 157b 8fbe 2c90 973d b9f0 a73e ee53 de3d
00000140: 9b77 743e 1bbb d83d e729 80be 2012 fdbd
00000150: 863a 9abe 3453 903e 3883 633d 1014 79bd
00000160: 949b 4abe d0f2 713d ecf5 e4bd 96c2 923e
00000170: 88fa 7abd 5087 f3bc ca92 8ebe 40c6 3abc
00000180: 9073 c23e 686f bdbd 6073 ef3d 7012 2ebd
00000190: c8dc 233d 9c28 cdbe ed99 b4be 3820 8c3e
000001a0: 3cb8 35bb 323b 823e d039 513e 485a 68bd
000001b0: 04d2 2f3e f0f0 aabe b869 213d 0482 e6bd
000001c0: 0889 7b3e 04b8 a9be a755 e43d dfbd ab3d
000001d0: 66a1 c6be 8f91 a63e 9832 073e b809 913e
000001e0: 00d1 c8bd 6c13 9cbe c7eb a8be 80cf c6bc
000001f0: e60c 81be a0cd 2abe 18da 2ebe 50e5 933e
00000200: bb62 acbe a2b8 83be fa6f bc3e 20a5 f6bc
00000210: 19bc a03e 8764 73be 1efd c43e e79b 9e3c
00000220: f0f8 f23c ccfe 17be 6bea 3dbe 8c4b c6be
00000230: 0039 af3e e69c 47be 6823 653e f88e 523e
00000240: 080e c73d 80c6 3cbd 580a 123d ee8d bbbe
00000250: d481 aa3e 7cb1 8f3e 127c 35be 223f 32be
00000260: 3dcb 96be 6834 763e 0086 efbb 48fe f93d
00000270: 5b96 6bbe 3ecb 6abe 6087 913c 650b ce3d
00000280: 082a 8e3e 3a71 c03e 0f3f 69be 3cbc 94be
00000290: 029f 073c 253a 1fbb f8b9 4fbd d097 b83d
000002a0: 72a4 6d3e 0d66 b4be 3ed2 af3e bdc5 df3d
000002b0: eecf ad3e 5051 543d 6c7a c9be fdc5 28be
000002c0: c46a c1be b8b9 6dbd 46df bc3e c065 24bc
000002d0: a2db 2bbe 0000 59b7 080b b63e 7e7a 10be
000002e0: d46d 193e 6c52 313e 2809 3e3e dc66 86be
000002f0: 2312 5dbe f1c0 59be a80a 5c3e d8bf 11bd
00000300: 2236 91be 6ad8 42be 9ef1 8bbe 40d7 d3bb
00000310: dce1 353e f8a7 e03d 4049 53bc 3608 94be
00000320: 67a3 a4be a943 74be caa6 823e 92b1 ce3e
00000330: f012 293e f4bd 94bd 8fa1 293e c97d 4b3e
00000340: 502e 90bc 94b5 043e 7081 ecbd 1720 c1be
00000350: 8825 bcbe 0c68 d1bd 630a 51be c41b 113e
00000360: 4fe4 263d 0c71 d13d 9d03 c33c 3857 033e
00000370: 7293 8e3e 290d 62be b603 b5be 964c d33d
00000380: 1660 ae3e eed1 483e 4a9c cb3e baee 10be
00000390: 08e1 743e ce9e c93e a18b 94be af16 92be
000003a0: 1234 ac3e 4073 9f3e 005c e2ba d436 1d3e
000003b0: fa82 a13e 5ae4 44be 6e6c 953e 7402 cebe
000003c0: 00c2 11bb ec7b 5a3e ac94 a0be 5ef6 afbe
000003d0: a80b 4dbd 1283 69be dac6 a63e bc34 c0bd
000003e0: 9249 b1be 60f8 3dbe 121b 7cbe e8ab f3bd
000003f0: 2dd1 cb3e 3039 8e3e 3f5b 5cbe 3866 bc3e
-0.30926165 0.043191202 0.4058932 0.2533658 -0.056310683 -0.3331424 0.05983963 0.21937484
0.4031307 0.13062246 0.04636967 -0.20236431 0.14617455 -0.31457108 -0.24858549 -0.046018004
-0.33449236 0.36386395 0.17665619 -0.22651692 -0.31176382 0.30065116 -0.11782703 0.29375058
0.109018385 -0.12835695 -0.33827037 0.25103796 0.024967194 0.24361622 -0.037701037 0.30815136
0.14199689 0.2641761 0.21955448 -0.28999507 -0.06709227 0.18332267 0.36857414 -0.104091436
0.36891592 -0.35510138 0.32984862 0.012979075 0.3406386 0.03357779 0.017859995 -0.24196625
0.27616954 0.29861438 0.40474927 -0.20692334 -0.011380255 -0.18917316 -0.37076524 -0.30548182
0.13224226 -0.19233423 0.29531366 -0.16643181 -0.027350843 0.070008636 -0.25779694 -0.37154907
0.13268214 0.39337426 -0.0389645 0.024877246 0.27823135 0.3539641 0.2163781 0.35968626
0.039120242 -0.19478808 0.3696172 0.24030386 -0.28023592 0.074005455 0.32800844 0.10855852
0.23873751 0.105825625 -0.2503197 -0.12356973 -0.30122775 0.2818848 0.05554506 -0.06081015
-0.19785911 0.059069455 -0.111797184 0.28664082 -0.06127408 -0.029727608 -0.27846366 -0.011399806
0.37978792 -0.09249765 0.11691928 -0.042498052 0.040005475 -0.40070045 -0.35273686 0.2736833
-0.002772822 0.25435787 0.2043221 -0.056726724 0.17169958 -0.33386946 0.039407462 -0.11255267
0.24563992 -0.33148205 0.111491494 0.083858244 -0.38795012 0.32532927 0.13202894 0.28327727
-0.098054886 -0.30483568 -0.32992384 -0.024268866 -0.25205153 -0.16680002 -0.17075384 0.2888589
-0.33669075 -0.257268 0.3680418 -0.030108035 0.31393507 -0.23768817 0.38474363 0.01936145
0.029659718 -0.14843291 -0.18546455 -0.38729513 0.34223175 -0.19493446 0.22376788 0.20562351
0.09719473 -0.04608774 0.035654396 -0.3663172 0.33302176 0.28065097 -0.1772311 -0.17406896
-0.29451934 0.24043429 -0.007309675 0.122067034 -0.23006575 -0.22929093 0.017764747 0.10060767
0.27766442 0.37586385 -0.22777961 -0.2904986 0.0082776565 -0.0024296131 -0.050714463 0.09013331
0.23207262 -0.3523411 0.3434009 0.109263875 0.339477 0.05183536 -0.39351213 -0.16481777
-0.37776768 -0.058038443 0.36889094 -0.010034025 -0.16783002 -1.2934208e-05 0.3555529 -0.14109227
0.14983302 0.17316598 0.1855818 -0.2625035 -0.2158895 -0.21265008 0.2148844 -0.035583347
-0.28361613 -0.19027868 -0.27332777 -0.006464869 0.1776194 0.109695375 -0.012895882 -0.28912514
-0.32155916 -0.23853935 0.25517875 0.4036985 0.1651113 -0.07262793 0.16565536 0.19872202
-0.017600209 0.12959892 -0.11548126 -0.37719795 -0.36747384 -0.102249235 -0.20414118 0.14170748
0.040745076 0.1022664 0.023805434 0.1282624 0.27846867 -0.22075333 -0.35354394 0.10317342
0.34057683 0.19611332 0.39767677 -0.14153567 0.23913968 0.3937897 -0.29012778 -0.2853293
0.33633476 0.31142616 -0.001726985 0.15352947 0.3154524 -0.19227734 0.29184288 -0.40236247
-0.0022240877 0.21336335 -0.31363428 -0.3436765 -0.050059944 -0.22803906 0.32573587 -0.09385058
-0.34626442 -0.18551779 -0.24619702 -0.11898023 0.39808026 0.27778006 -0.21519183 0.36796737

net.0.bias f4 [64]
00000000: ff5b 013e 3534 b73e f895 ed3d d02f dfbd
00000010: b9f4 c13e 3973 d83d b632 983e 60cf d0bd
00000020: 5870 ee3d 1098 9b3e 0034 0d3b 27e9 973e
00000030: 63d1 98be baa8 0fbd b8f7 f0bd 1455 5cbe
00000040: 9eea bdbe 5189 c5be 10a7 dcbc 8d9d 2dbe
00000050: 8092 6ebc 5e3b 85be a6ec aabe 4cbd 13be
00000060: a884 db3d 5a69 86be a0b7 ad3e d40d d2be
00000070: cc65 573e 0069 67bb 1926 acbe 2835 7f3e
00000080: 041e 473e f003 b03e 0528 483d c429 91bd
00000090: 8bb5 9b3c 3bc3 223d cc1d 043e ee5a 9c3e
000000a0: 0c83 623e 8a9a b0be 805f a2be 81ff 88be
000000b0: 2006 acbe 44c6 e03d 7d5e c33e 5639 903e
000000c0: 2f17 8abe 8d3c 54be d95a c4be 180b 673e
000000d0: 2073 573c c469 a53e 88a4 aebe d49e 3b3e
000000e0: ae2d d03e 5e13 b03e 3c2c ce3e 635a b7be
000000f0: f3a8 28be e420 1d3e afd3 f63c ffcd 843e
0.1263275 0.35782018 0.1160087 -0.108977914 0.3788202 0.10568852 0.2972619 -0.10195804
0.116425216 0.30389452 0.0021545887 0.2967007 -0.2984725 -0.03507302 -0.117659986 -0.2151683
-0.3709306 -0.38581327 -0.02693513 -0.16954632 -0.0145612955 -0.26021856 -0.33383673 -0.1442768
0.107186615 -0.26252252 0.33929157 -0.41026175 0.21034926 -0.0035310388 -0.33622816 0.24922621
0.19445044 0.34378004 0.04886629 -0.07088044 0.019007465 0.039736968 0.12901992 0.30538124
0.22120303 -0.34492904 -0.31713486 -0.26757434 -0.33598423 0.10975316 0.38158026 0.28168744
-0.26970813 -0.20726223 -0.3835056 0.22562826 0.0131500065 0.32307255 -0.34109902 0.18322307
0.4065985 0.34389776 0.40268123 -0.35811147 -0.16470699 0.15344578 0.030130235 0.25938413

net.2.weight f4 [32, 64]
00000000: 9878 e6bd 387b 5a3d 5864 e7bd beff b9bd
00000010: 82fb e6bd 36c0 e73d e8c1 753d c6d1 e1bd
00000020: 50ab e63d 20c8 903c 0800 b3bd 94e5 953d
00000030: e091 c8bd 40d7 c93d 7a30 b0bd d2fd d93d
00000040: 9e0c c73d 40f5 723d 18f0 683d a8a2 923d
00000050: 100d c33c 7800 17bd 3a76 8a3d 908b 523d
00000060: bc2d 593d e8df 90bc 303e 11bd 84eb 623d
00000070: 18c3 7c3d 5c1f e6bd e0a7 c83d b079 083d
00000080: f86c a63d 98f9 113d 0ca5 31bd 409e 343d
00000090: fcc8 4e3d 3894 313d 3ea7 ea3d 3cd8 7e3d
000000a0: dc13 643d 9cc2 6cbd d85b b63d accc f4bd
000000b0: 705d 683c 3848 d43c 341b c4bd fc4f f6bd
000000c0: 18c4 bfbd cc6a 993d 8823 fcbd 18c4 893d
000000d0: b8b9 e13d 6486 1f3d 0c10 78bd e269 c53d
000000e0: 3691 9fbd 50d7 5fbd 8212 ce3d fe4a b0bd
000000f0: 3c7e 5b3d 10c5 733d d8ad 1cbd e436 e3bd
00000100: 5f15 c43d 0530 713d 509f eebc 61b1 933d
00000110: 7802 41bd a5dd 14bc 76d3 8ebd 8c7c 4ebd
00000120: f836 0c3d b834 a63c 20df 993b 12be 7b3d
00000130: 03ec 223d a1a2 be3d f6fc b83d 8cac a03d
00000140: 14e4 4b3d b8f5 d63c a8c5 bb3d 85a4 abbd
00000150: 3c05 c23d 9050 20bc 0ead ac3d 2052 93bd
00000160: 5eaf 853d d4ef cf3c 7aad 11bd 0220 dd3d
00000170: e60d e23d 06c9 e93d a8c1 ed3c 58ca 2f3d
00000180: 0853 e4bc 58b0 9f3d 3e81 75bd 7e43 f1bd
00000190: 83cc 57bd 4971 77bb dacd a33d c0d3 453c
000001a0: 9c77 20bd a0e4 cbbb 6966 db3c 58a1 393d
000001b0: c622 a33d c2fd 9cbb 2d8e 4fbd 4490 efbd
000001c0: 3ad3 463b 17a7 0cbd 9013 743c a47b 383d
000001d0: 9ae5 fe3d 3eca afbd 03d4 4b3d 744b 3ebc
000001e0: 6ec1 e5bd 3743 c03b 8cd8 923c cbd3 243d
000001f0: a52e cebd f874 aa3c 0fd8 d2bd 6eb1 ef3c
00000200: 7cf6 c5bd 565f fe3d 82fb 923d 3e93 a8bd
00000210: 1002 923d c84e babc b01d cabc 00a2 ef39
00000220: 2c79 e83d 307a 523c ec38 54bd 18ea 8d3c
00000230: d878 61bd e270 ef3d b008 b83c 162d d6bd
00000240: 805f 463c c091 d03c 30cc 933d 3230 b93d
00000250: d67e 833d 763a ae3d baa4 8b3d 24b0 1cbd
00000260: 90e6 16bd 8c94 09bd 385d 40bd 5cf9 cbbd
00000270: 20d0 8bbc 80ce adbc 9820 ed3d b44a 9cbd
00000280: b2c4 efbd 205f 0abd 50f8 d8bc 184c e2bc
00000290: 6ccd 8bbd 123d 92bd 9048 343c e2f2 fdbd
000002a0: 005b 703a 3aa0 8dbd f843 81bd b8d7 c33d
000002b0: c037 083d e425 d93d 12af a23d f418 723d
000002c0: ea82 91bd 2004 f9bd ceae ce3d 6095 6c3d
000002d0: 2094 23bd 9e24 f5bd ec33 4a3d 60af a4bb
000002e0: a858 18bd 98bb f43d 96de 9d3d 6422 10bd
000002f0: cef8 febd 0c58 58bd f4ec 0ebd bc73 433d
00000300: 548f d73d 9043 5e3d 18a7 29bd 1764 5e3d
00000310: b789 e33d 2ecc 27bd a4a0 7a3d 040c adbc
00000320: 0a52 933d 0cbe 72bd 6829 303d 5e89 f0bd
00000330: c8a3 9c3d e11c d53d d032 fe3d 6adb c4bd
00000340: 60ff 2f3c a1ea ec3d 588c f73d 7e36 cfbc
00000350: e25e e0bd 70a7 ff3c 0dee f33b ca4e 8fbd
00000360: 0c83 b63d 5f8a 77bd d842 973d d68a cd3d
00000370: 66c1 9e3c 42ab f6bd acc1 c4bd 684f d8bc
00000380: 005a 49bb 8ce0 e63d 024e c6bb 9031 8c3d
00000390: f108 9abb 8c2d a4bd b093 2dbd c8e4 913c
000003a0: e2e8 ff3d 68f4 abbd 36ce e13c 51f0 9bbc
000003b0: 26c6 fd3d ef85 cabd d9da 6d3d ec69 a0bc
000003c0: dab3 663d c898 3d3d ce51 d53d 36de b33d
000003d0: 5c31 66bd 1c99 f83d d437 1c3d 416d 1abb
000003e0: b40c febd 484c fb3d 7626 1dbd f07c 893d
000003f0: 5072 89bc 48a7 b9bc 1722 02bd 3b50 7fbd
-0.1125347 0.053340167 -0.11298436 -0.09081982 -0.1127844 0.11315958 0.059999377 -0.11026339
0.11263144 0.017673552 -0.0874024 0.07319179 -0.097934484 0.09855509 -0.08602996 0.106441155
0.097192034 0.05931592 0.056869596 0.071599305 0.02380994 -0.03686568 0.06760831 0.05140263
0.05302213 -0.017684892 -0.035459697 0.055400386 0.061709493 -0.1123645 0.097976446 0.033319175
0.08126253 0.03563842 -0.04337029 0.04409623 0.050484642 0.043354243 0.1145768 0.062217936
0.055683002 -0.05780278 0.089042366 -0.119531006 0.0141824335 0.025913343 -0.09575501 -0.120269746
-0.09363574 0.07491073 -0.123114645 0.06726855 0.11021751 0.038946524 -0.06056218 0.09639336
-0.07791369 -0.054648697 0.10062124 -0.086080536 0.053587183 0.059514105 -0.038251728 -0.11094454
0.09574389 0.058883686 -0.0291287 0.07211567 -0.047121495 -0.009086047 -0.06973927 -0.050411746
0.03423211 0.02028881 0.004695788 0.061460562 0.03977586 0.09308363 0.090326235 0.07845411
0.04977806 0.026240215 0.09168559 -0.08380989 0.09473655 -0.009784833 0.08431445 -0.071933985
0.06527589 0.025382914 -0.03556583 0.10797121 0.11037807 0.11415295 0.029023007 0.04291758
-0.027871624 0.07797307 -0.059937708 -0.11780451 -0.052685272 -0.0037756732 0.079982474 0.012074411
-0.03917657 -0.0062223226 0.026782231 0.045319885 0.07965617 -0.0047909925 -0.0506727 -0.11697438
0.0030338303 -0.034339037 0.014897242 0.045039788 0.12446137 -0.085834965 0.049762737 -0.011614669
-0.112185344 0.0058673876 0.017925523 0.040241044 -0.100674905 0.020807728 -0.10295116 0.02925941
-0.09666154 0.12420528 0.071768776 -0.08231209 0.071293 -0.022742644 -0.02467236 0.00045706332
0.11351237 0.012846515 -0.051812097 0.017323539 -0.055046886 0.116914526 0.02246508 -0.10457818
0.01210773 0.025460124 0.0721668 0.09042396 0.064206764 0.08507244 0.068185285 -0.03825392
-0.036840975 -0.03358893 -0.0469639 -0.09959671 -0.017067015 -0.021216631 0.115784824 -0.07631436
-0.117074385 -0.033782125 -0.026485592 -0.027624175 -0.068262905 -0.071405545 0.011003628 -0.12399842
0.00091688335 -0.069153264 -0.06311792 0.095626295 0.033256292 0.1060293 0.07943548 0.05910583
-0.07105048 -0.1215899 0.10091935 0.057759643 -0.039936185 -0.11969875 0.049365923 -0.005025789
-0.037193924 0.11949843 0.077084705 -0.035189047 -0.124497995 -0.052818343 -0.034893945 0.047717795
0.105253845 0.05426365 -0.04141912 0.054294672 0.111102514 -0.040966205 0.061188355 -0.021123894
0.07193382 -0.059263274 0.043008238 -0.11744951 0.07648426 0.10405899 0.124120355 -0.096121624
0.0107420385 0.115681894 0.12087315 -0.025294539 -0.109555975 0.03120777 0.0074441493 -0.0699745
0.08911714 -0.060434695 0.07385796 0.100362465 0.019379329 -0.120443836 -0.096072525 -0.026405051
-0.003072381 0.11273298 -0.0060517797 0.06845391 -0.004700773 -0.080165 -0.042377174 0.017809287
0.12495591 -0.08396226 0.02756415 -0.01903549 0.123913094 -0.09888827 0.058070038 -0.019581757
0.056323864 0.04628828 0.10415994 0.08782618 -0.056199417 0.12138578 0.03813918 -0.0023563656
-0.12404767 0.12270409 -0.038366757 0.06713283 -0.016778141 -0.022662774 -0.03177079 -0.062332373

net.2.bias f4 [32]
00000000: 949f e03d 9a7b 253c d23f 93bd 1980 d8bc
00000010: 5ea7 eebd 70d2 533d b877 9e3d ea5f e13d
00000020: 9af0 813d 1492 4abd d892 11bd 6861 44bd
00000030: 0061 e7bd b011 04be 3b7f f1bd d6a7 83bd
00000040: 1878 6dbd 7aae 80bd c0e5 6b3d 518d 96bb
00000050: a890 e7bc 6b38 bf3d e645 9ebd e476 a43d
00000060: 006e 5fbc 38af f0bc 0a23 96bd ad48 acbd
00000070: eebd a63d c848 a3bd 640b 433d 1479 933d
0.10967937 0.01010027 -0.07189907 -0.02642827 -0.116530165 0.05171436 0.07737678 0.11004622
0.06344719 -0.049455717 -0.03554043 -0.047944456 -0.11297798 -0.12897372 -0.117918454 -0.064284965
-0.05797586 -0.06283279 0.057592154 -0.004594483 -0.02826722 0.09336933 -0.07728176 0.08030489
-0.013637066 -0.029380426 -0.07330902 -0.08412299 0.08141695 -0.07972866 0.047618285 0.07200828

net.4.weight f4 [4, 32]
00000000: f198 abbd 3399 4abd 6e76 dc3d 3582 863d
00000010: 343d c9bd 0177 2c3e 5ca0 523d 063e bf3d
00000020: 5e6f 8b3d bead 8abd b02b 9e3c afab 093e
00000030: eda2 143d 0d60 40bd 7bbf b23c 0019 d23b
00000040: 5607 ef3d 7496 54bd e084 de3c 06a1 323e
00000050: 81c3 103e 1226 86bd dfb2 e2bd 42f0 28be
00000060: 6d66 203e 7896 d4bc a006 b3bb b797 903b
00000070: 6782 26be 8f71 1d3e 6fdb 1b3e 6804 833d
00000080: ca0f f8bd a822 0a3e 80a2 0f3b f604 bfbd
00000090: 60c3 4ebc 104a 3bbd bcb4 133d 4868 2fbd
000000a0: 3c96 e0bc 50f3 3d3c 7cfe 15be 052b 83bd
000000b0: 8734 303e fcde cf3d 2104 2e3e c9fa 1fbe
000000c0: 3543 143e f265 dc3d 50d2 d8bd 6bd2 25be
000000d0: c05c 13bd 96a0 20be 7044 04be ec0b 763d
000000e0: 00c0 553c b813 77bd a0d0 dcbd 7b68 e63b
000000f0: c066 7e3c b0a4 80bc 38b4 4ebd 7097 943c
00000100: a047 adbd 6359 2b3e 801d 22bc 1a35 f43d
00000110: 0800 e1bc 0e5e 963d 2bf1 e3bd 327c 0abe
00000120: 3365 c4bd 3c6a 1ebe 61cf 113e a8f5 0d3d
00000130: d76d a8bd 4bb5 cd3d 201a 983c a85e ef3c
00000140: c88e 0ebe d0bd 493c 2b12 243e 4f68 a8bd
00000150: 52e2 aa3d a2bc f53d f747 0e3e faa5 943d
00000160: 8044 1d3d a83a 2fbe c469 c4bd c8be 19be
00000170: 60cf efbd 424d dd3d 26e5 933d 9f57 cdbd
00000180: 5cc7 513d de62 003e 88c6 1a3d 6de4 2f3e
00000190: 8810 82bd 6c8e 33bd 17dc 133e b4f0 2cbd
000001a0: 0958 873c 752b 203e e690 19be 465a 55bd
000001b0: 4391 edbd eeac be3c a031 283b d65f 9a3d
000001c0: 3e8e 67bd 48dc 473d 90c1 4fbc f2d4 a8bd
000001d0: 139b bcbd 8ca4 8ebd 4c48 27be 1eb7 8dbd
000001e0: e0d7 cfbc 8461 663d 0459 b3bd 0434 e8bc
000001f0: 3974 333e 645f 673d c082 c73c 7e40 cb3d
-0.08378781 -0.04946251 0.10764776 0.06567804 -0.09826127 0.16842271 0.051422462 0.09338002
0.06808351 -0.0677142 0.019307941 0.13444398 0.03628819 -0.0469666 0.02181982 0.0064116716
0.11671321 -0.051901296 0.02716297 0.17444238 0.14137079 -0.0655023 -0.11069273 -0.16497901
0.15664072 -0.025950655 -0.0054634362 0.004412617 -0.16260682 0.1537535 0.15220426 0.06397325
-0.121123865 0.13489783 0.0021916926 -0.09327118 -0.012619823 -0.04572493 0.036061034 -0.04282406
-0.027415387 0.011593655 -0.1464786 -0.0640469 0.17207538 0.10149953 0.16993763 -0.1562301
0.14478762 0.10761632 -0.10586989 -0.1619355 -0.035977125 -0.15686259 -0.12916732 0.060069963
0.013046265 -0.06032154 -0.107819796 0.007031498 0.015527427 -0.01570353 -0.05046484 0.018138617
-0.08460927 0.16733317 -0.009894729 0.11924191 -0.027465835 0.07342158 -0.111299835 -0.13523939
-0.09589615 -0.15470213 0.14239265 0.034658104 -0.08224075 0.100443445 0.018567145 0.02921994
-0.13921654 0.012313321 0.16022556 -0.0822302 0.083439484 0.119988695 0.1389464 0.0725822
0.038395405 -0.1711222 -0.09590486 -0.15014184 -0.117094755 0.108057514 0.07221441 -0.10026478
0.051215515 0.12537715 0.03778699 0.17176981 -0.06350809 -0.043836996 0.14439426 -0.04222174
0.01652147 0.15641578 -0.1499668 -0.052088045 -0.11599972 0.023275819 0.0025664344 0.075378105
-0.056532137 0.04879406 -0.012680426 -0.08243741 -0.092092656 -0.069649786 -0.16336173 -0.069196925
-0.025371492 0.056245342 -0.08757213 -0.028345115 0.17524804 0.056487456 0.024354339 0.0992441

net.4.bias f4 [4]
00000000: c4b8 2abc 8dfa c53d 7fcd 26be 4805 913d
-0.010420028 0.096669294 -0.16289328 0.070810854
